…
le":"2025-06-17T19:48:19.540086Z","shell.execute_reply.started":"2025-06-17T19:48:19.293231Z","shell.execute_reply":"2025-06-17T19:48:19.539403Z"},"papermill":{"duration":0.360844,"end_time":"2024-06-22T13:33:09.134062","exception":false,"start_time":"2024-06-22T13:33:08.773218","status":"completed"},"tags":[],"trusted":true},"outputs":[{"execution_count":122,"output_type":"execute_result","data":{"text/plain":"FusionModel(\n  (image_model): VisionClassifierModel(\n    (model): ViTModel(\n      (embeddings): ViTEmbeddings(\n        (patch_embeddings): ViTPatchEmbeddings(\n          (projection): Conv2d(3, 768, kernel_size=(16, 16), stride=(16, 16))\n        )\n        (dropout): Dropout(p=0.0, inplace=False)\n      )\n      (encoder): ViTEncoder(\n        (layer): ModuleList(\n          (0-11): 12 x ViTLayer(\n            (attention): ViTAttention(\n              (attention): ViTSelfAttention(\n                (query): Linear(in_features=768, out_features=768, bias=True)\n                (key): Linear(in_features=768, out_features=768, bias=True)\n                (value): Linear(in_features=768, out_features=768, bias=True)\n              )\n              (output): ViTSelfOutput(\n                (dense): Linear(in_features=768, out_features=768, bias=True)\n                (dropout): Dropout(p=0.0, inplace=False)\n              )\n            )\n            (intermediate): ViTIntermediate(\n              (dense): Linear(in_features=768, out_features=3072, bias=True)\n              (intermediate_act_fn): GELUActivation()\n            )\n            (output): ViTOutput(\n              (dense): Linear(in_features=3072, out_features=768, bias=True)\n              (dropout): Dropout(p=0.0, inplace=False)\n            )\n            (layernorm_before): LayerNorm((768,), eps=1e-12, elementwise_affine=True)\n            (layernorm_after): LayerNorm((768,), eps=1e-12, elementwise_affine=True)\n          )\n        )\n      )\n      (layernorm): LayerNorm((768,), eps=1e-12, elementwise_affine=True)\n      (pooler): ViTPooler(\n        (dense): Linear(in_features=768, out_features=768, bias=True)\n        (activation): Tanh()\n      )\n    )\n  )\n  (classifier_model): ClassifierModel(\n    (model): ElectraModel(\n      (embeddings): ElectraEmbeddings(\n        (word_embeddings): Embedding(32000, 768, padding_idx=0)\n        (position_embeddings): Embedding(512, 768)\n        (token_type_embeddings): Embedding(2, 768)\n        (LayerNorm): LayerNorm((768,), eps=1e-12, elementwise_affine=True)\n        (dropout): Dropout(p=0.1, inplace=False)\n      )\n      (encoder): ElectraEncoder(\n        (layer): ModuleList(\n          (0-11): 12 x ElectraLayer(\n            (attention): ElectraAttention(\n              (self): ElectraSelfAttention(\n                (query): Linear(in_features=768, out_features=768, bias=True)\n                (key): Linear(in_features=768, out_features=768, bias=True)\n                (value): Linear(in_features=768, out_features=768, bias=True)\n                (dropout): Dropout(p=0.1, inplace=False)\n              )\n              (output): ElectraSelfOutput(\n                (dense): Linear(in_features=768, out_features=768, bias=True)\n                (LayerNorm): LayerNorm((768,), eps=1e-12, elementwise_affine=True)\n                (dropout): Dropout(p=0.1, inplace=False)\n              )\n            )\n            (intermediate): ElectraIntermediate(\n              (dense): Linear(in_features=768, out_features=3072, bias=True)\n              (intermediate_act_fn): GELUActivation()\n            )\n            (output): ElectraOutput(\n              (dense): Linear(in_features=3072, out_features=768, bias=True)\n              (LayerNorm): LayerNorm((768,), eps=1e-12, elementwise_affine=True)\n              (dropout): Dropout(p=0.1, inplace=False)\n            )\n          )\n        )\n      )\n    )\n  )\n  (fusion_layer): Sequential(\n    (0): Linear(in_features=1536, out_features=1024, bias=True)\n    (1): ReLU()\n    (2): Dropout(p=0.4, inplace=False)\n    (3): Linear(in_features=1024, out_features=4, bias=True)\n  )\n)"},"metadata":{}}],"execution_count":122},{"id":"90ba4172","cell_type":"code","source":"model_path = f\"/kaggle/working/Multimodal_model.bin\"\nmodel.load_state_dict(torch.load(model_path))","metadata":{"execution":{"iopub.status.busy":"2025-06-17T19:48:24.428188Z","iopub.execute_input":"2025-06-17T19:48:24.428435Z","iopub.status.idle":"2025-06-1
…
